…
[2025-09-07 23:01:18,006] INFO: [0;37mWarning: module Block is treated as a zero-op.[0m
[2025-09-07 23:01:18,007] INFO: [0;37mWarning: module ParticleTransformer is treated as a zero-op.[0m
[2025-09-07 23:01:18,007] INFO: [0;37mWarning: module ParticleTransformerWrapper is treated as a zero-op.[0m
[2025-09-07 23:01:19,382] INFO: [0;37mParticleTransformerWrapper(
  |2.12 M, 99.021% Params, 111.672 MMac, 100.000% MACs|
  (mod): ParticleTransformer(
    |2.12 M, 99.021% Params, 111.672 MMac, 100.000% MACs|
    (trimmer): SequenceTrimmer(|0.0 M, 0.000% Params, 0.0 Mac, 0.000% MACs|)
    (embed): Embed(
      |0.133 M, 6.194% Params, 6.857 MMac, 6.140% MACs|
      (input_bn): BatchNorm1d(6, eps=1e-05, momentum=0.1, affine=True, track_running_stats=True, |0.0 M, 0.001% Params, 624.0 Mac, 0.001% MACs|)
      (embed): Sequential(
        |0.133 M, 6.193% Params, 6.856 MMac, 6.140% MACs|
        (0): LayerNorm((6,), eps=1e-05, elementwise_affine=True, |0.0 M, 0.000% Params, 0.0 Mac, 0.000% MACs|)
        (1): Linear(in_features=6, out_features=128, bias=True, |0.001 M, 0.042% Params, 40.064 KMac, 0.036% MACs|)
        (2): GELU(approximate='none', |0.0 M, 0.000% Params, 0.0 Mac, 0.000% MACs|)
        (3): LayerNorm((128,), eps=1e-05, elementwise_affine=True, |0.0 M, 0.000% Params, 0.0 Mac, 0.000% MACs|)
        (4): Linear(in_features=128, out_features=512, bias=True, |0.066 M, 3.085% Params, 3.408 MMac, 3.052% MACs|)
        (5): GELU(approximate='none', |0.0 M, 0.000% Params, 0.0 Mac, 0.000% MACs|)
        (6): LayerNorm((512,), eps=1e-05, elementwise_affine=True, |0.0 M, 0.000% Params, 0.0 Mac, 0.000% MACs|)
        (7): Linear(in_features=512, out_features=128, bias=True, |0.066 M, 3.067% Params, 3.408 MMac, 3.052% MACs|)
        (8): GELU(approximate='none', |0.0 M, 0.000% Params, 0.0 Mac, 0.000% MACs|)
      )
    )
    (pair_embed): PairEmbed(
      |0.01 M, 0.447% Params, 13.185 MMac, 11.807% MACs|
      (embed): Sequential(
        |0.01 M, 0.447% Params, 13.185 MMac, 11.807% MACs|
        (0): BatchNorm1d(4, eps=1e-05, momentum=0.1, affine=True, track_running_stats=True, |0.0 M, 0.000% Params, 11.024 KMac, 0.010% MACs|)
        (1): Conv1d(4, 64, kernel_size=(1,), stride=(1,), |0.0 M, 0.015% Params, 440.96 KMac, 0.395% MACs|)
        (2): BatchNorm1d(64, eps=1e-05, momentum=0.1, affine=True, track_running_stats=True, |0.0 M, 0.006% Params, 176.384 KMac, 0.158% MACs|)
        (3): GELU(approximate='none', |0.0 M, 0.000% Params, 0.0 Mac, 0.000% MACs|)
        (4): Conv1d(64, 64, kernel_size=(1,), stride=(1,), |0.004 M, 0.194% Params, 5.732 MMac, 5.133% MACs|)
        (5): BatchNorm1d(64, eps=1e-05, momentum=0.1, affine=True, track_running_stats=True, |0.0 M, 0.006% Params, 176.384 KMac, 0.158% MACs|)
        (6): GELU(approximate='none', |0.0 M, 0.000% Params, 0.0 Mac, 0.000% MACs|)
        (7): Conv1d(64, 64, kernel_size=(1,), stride=(1,), |0.004 M, 0.194% Params, 5.732 MMac, 5.133% MACs|)
        (8): BatchNorm1d(64, eps=1e-05, momentum=0.1, affine=True, track_running_stats=True, |0.0 M, 0.006% Params, 176.384 KMac, 0.158% MACs|)
        (9): GELU(approximate='none', |0.0 M, 0.000% Params, 0.0 Mac, 0.000% MACs|)
        (10): Conv1d(64, 8, kernel_size=(1,), stride=(1,), |0.001 M, 0.024% Params, 716.56 KMac, 0.642% MACs|)
        (11): BatchNorm1d(8, eps=1e-05, momentum=0.1, affine=True, track_running_stats=True, |0.0 M, 0.001% Params, 22.048 KMac, 0.020% MACs|)
        (12): GELU(approximate='none', |0.0 M, 0.000% Params, 0.0 Mac, 0.000% MACs|)
      )
    )
    (blocks): ModuleList(
      (0-7): 8 x Block(
        |0.198 M, 9.236% Params, 10.971 MMac, 9.825% MACs|
        (pre_attn_norm): LayerNorm((128,), eps=1e-05, elementwise_affine=True, |0.0 M, 0.000% Params, 0.0 Mac, 0.000% MACs|)
        (attn): MultiheadAttention(
          |0.066 M, 3.085% Params, 4.155 MMac, 3.721% MACs|
          (out_proj): NonDynamicallyQuantizableLinear(in_features=128, out_features=128, bias=True, |0.0 M, 0.000% Params, 0.0 Mac, 0.000% MACs|)
        )
        (post_attn_norm): LayerNorm((128,), eps=1e-05, elementwise_affine=True, |0.0 M, 0.000% Params, 0.0 Mac, 0.000% MACs|)
        (dropout): Dropout(p=0.1, inplace=False, |0.0 M, 0.000% Params, 0.0 Mac, 0.000% MACs|)
        (pre_fc_norm): LayerNorm((128,), eps=1e-05, elementwise_affine=True, |0.0 M, 0.000% Params, 0.0 Mac, 0.000% MACs|)
        (fc1): Linear(in_features=128, out_features=512, bias=True, |0.066 M, 3.085% Params, 3.408 MMac, 3.052% MACs|)
        (act): GELU(approximate='none', |0.0 M, 0.000% Params, 0.0 Mac, 0.000% MACs|)
        (act_dropout): Dropout(p=0.1, inplace=False, |0.0 M, 0.000% Params, 0.0 Mac, 0.000% MACs|)
        (post_fc_norm): LayerNorm((512,), eps=1e-05, elementwise_affine=True, |0.0 M, 0.000% Params, 0.0 Mac, 0.000% MACs|)
        (fc2): Linear(in_features=512, out_features=128, bias=True, |0.066 M, 3.067% Params, 3.408 MMac, 3.052% MACs|)
      )
    )
    (cls_blocks): ModuleList(
      (0-1): 2 x Block(
        |0.198 M, 9.236% Params, 1.929 MMac, 1.727% MACs|
        (pre_attn_norm): LayerNorm((128,), eps=1e-05, elementwise_affine=True, |0.0 M, 0.000% Params, 0.0 Mac, 0.000% MACs|)
        (attn): MultiheadAttention(
          |0.066 M, 3.085% Params, 1.797 MMac, 1.610% MACs|
          (out_proj): NonDynamicallyQuantizableLinear(in_features=128, out_features=128, bias=True, |0.0 M, 0.000% Params, 0.0 Mac, 0.000% MACs|)
        )
        (post_attn_norm): LayerNorm((128,), eps=1e-05, elementwise_affine=True, |0.0 M, 0.000% Params, 0.0 Mac, 0.000% MACs|)
        (dropout): Dropout(p=0, inplace=False, |0.0 M, 0.000% Params, 0.0 Mac, 0.000% MACs|)
        (pre_fc_norm): LayerNorm((128,), eps=1e-05, elementwise_affine=True, |0.0 M, 0.000% Params, 0.0 Mac, 0.000% MACs|)
        (fc1): Linear(in_features=128, out_features=512, bias=True, |0.066 M, 3.085% Params, 66.048 KMac, 0.059% MACs|)
        (act): GELU(approximate='none', |0.0 M, 0.000% Params, 0.0 Mac, 0.000% MACs|)
        (act_dropout): Dropout(p=0, inplace=False, |0.0 M, 0.000% Params, 0.0 Mac, 0.000% MACs|)
        (post_fc_norm): LayerNorm((512,), eps=1e-05, elementwise_affine=True, |0.0 M, 0.000% Params, 0.0 Mac, 0.000% MACs|)
        (fc2): Linear(in_features=512, out_features=128, bias=True, |0.066 M, 3.067% Params, 65.664 KMac, 0.059% MACs|)
      )
    )
    (norm): LayerNorm((128,), eps=1e-05, elementwise_affine=True, |0.0 M, 0.000% Params, 0.0 Mac, 0.000% MACs|)
    (fc): Sequential(
      |0.001 M, 0.024% Params, 516.0 Mac, 0.000% MACs|
      (0): Linear(in_features=128, out_features=4, bias=True, |0.001 M, 0.024% Params, 516.0 Mac, 0.000% MACs|)
    )
  )
)[0m
[2025-09-07 23:01:19,384] INFO: Computational complexity:       111.67 MMac
[2025-09-07 23:01:19,384] INFO: Number of parameters:           2.14 M  
[2025-09-07 23:01:19,384] INFO: Using loss function <class 'torch.nn.modules.loss.MSELoss'> with options {}
[2025-09-07 23:01:19,467] INFO: Create Tensorboard summary writer with comment particletransformer
…
[2025-09-07 23:12:38,703] INFO: [0;37mWarning: module Block is treated as a zero-op.[0m
[2025-09-07 23:12:38,703] INFO: [0;37mWarning: module ParticleTransformer is treated as a zero-op.[0m
[2025-09-07 23:12:38,703] INFO: [0;37mWarning: module ParticleTransformerWrapper is treated as a zero-op.[0m
[2025-09-07 23:12:39,393] INFO: [0;37mParticleTransformerWrapper(
  |0.335 M, 98.059% Params, 18.023 MMac, 100.000% MACs|
  (mod): ParticleTransformer(
    |0.335 M, 98.059% Params, 18.023 MMac, 100.000% MACs|
    (trimmer): SequenceTrimmer(|0.0 M, 0.000% Params, 0.0 Mac, 0.000% MACs|)
    (embed): Embed(
      |0.034 M, 9.826% Params, 1.725 MMac, 9.571% MACs|
      (input_bn): BatchNorm1d(6, eps=1e-05, momentum=0.1, affine=True, track_running_stats=True, |0.0 M, 0.004% Params, 624.0 Mac, 0.003% MACs|)
      (embed): Sequential(
        |0.034 M, 9.823% Params, 1.724 MMac, 9.567% MACs|
        (0): LayerNorm((6,), eps=1e-05, elementwise_affine=True, |0.0 M, 0.000% Params, 0.0 Mac, 0.000% MACs|)
        (1): Linear(in_features=6, out_features=64, bias=True, |0.0 M, 0.131% Params, 20.032 KMac, 0.111% MACs|)
        (2): GELU(approximate='none', |0.0 M, 0.000% Params, 0.0 Mac, 0.000% MACs|)
        (3): LayerNorm((64,), eps=1e-05, elementwise_affine=True, |0.0 M, 0.000% Params, 0.0 Mac, 0.000% MACs|)
        (4): Linear(in_features=64, out_features=256, bias=True, |0.017 M, 4.874% Params, 852.224 KMac, 4.729% MACs|)
        (5): GELU(approximate='none', |0.0 M, 0.000% Params, 0.0 Mac, 0.000% MACs|)
        (6): LayerNorm((256,), eps=1e-05, elementwise_affine=True, |0.0 M, 0.000% Params, 0.0 Mac, 0.000% MACs|)
        (7): Linear(in_features=256, out_features=64, bias=True, |0.016 M, 4.818% Params, 852.032 KMac, 4.728% MACs|)
        (8): GELU(approximate='none', |0.0 M, 0.000% Params, 0.0 Mac, 0.000% MACs|)
      )
    )
    (pair_embed): PairEmbed(
      |0.003 M, 0.765% Params, 3.599 MMac, 19.971% MACs|
      (embed): Sequential(
        |0.003 M, 0.765% Params, 3.599 MMac, 19.971% MACs|
        (0): BatchNorm1d(4, eps=1e-05, momentum=0.1, affine=True, track_running_stats=True, |0.0 M, 0.002% Params, 11.024 KMac, 0.061% MACs|)
        (1): Conv1d(4, 32, kernel_size=(1,), stride=(1,), |0.0 M, 0.047% Params, 220.48 KMac, 1.223% MACs|)
        (2): BatchNorm1d(32, eps=1e-05, momentum=0.1, affine=True, track_running_stats=True, |0.0 M, 0.019% Params, 88.192 KMac, 0.489% MACs|)
        (3): GELU(approximate='none', |0.0 M, 0.000% Params, 0.0 Mac, 0.000% MACs|)
        (4): Conv1d(32, 32, kernel_size=(1,), stride=(1,), |0.001 M, 0.309% Params, 1.455 MMac, 8.074% MACs|)
        (5): BatchNorm1d(32, eps=1e-05, momentum=0.1, affine=True, track_running_stats=True, |0.0 M, 0.019% Params, 88.192 KMac, 0.489% MACs|)
        (6): GELU(approximate='none', |0.0 M, 0.000% Params, 0.0 Mac, 0.000% MACs|)
        (7): Conv1d(32, 32, kernel_size=(1,), stride=(1,), |0.001 M, 0.309% Params, 1.455 MMac, 8.074% MACs|)
        (8): BatchNorm1d(32, eps=1e-05, momentum=0.1, affine=True, track_running_stats=True, |0.0 M, 0.019% Params, 88.192 KMac, 0.489% MACs|)
        (9): GELU(approximate='none', |0.0 M, 0.000% Params, 0.0 Mac, 0.000% MACs|)
        (10): Conv1d(32, 4, kernel_size=(1,), stride=(1,), |0.0 M, 0.039% Params, 181.896 KMac, 1.009% MACs|)
        (11): BatchNorm1d(4, eps=1e-05, momentum=0.1, affine=True, track_running_stats=True, |0.0 M, 0.002% Params, 11.024 KMac, 0.061% MACs|)
        (12): GELU(approximate='none', |0.0 M, 0.000% Params, 0.0 Mac, 0.000% MACs|)
      )
    )
    (blocks): ModuleList(
      (0-3): 4 x Block(
        |0.05 M, 14.565% Params, 2.93 MMac, 16.256% MACs|
        (pre_attn_norm): LayerNorm((64,), eps=1e-05, elementwise_affine=True, |0.0 M, 0.000% Params, 0.0 Mac, 0.000% MACs|)
        (attn): MultiheadAttention(
          |0.017 M, 4.874% Params, 1.226 MMac, 6.800% MACs|
          (out_proj): NonDynamicallyQuantizableLinear(in_features=64, out_features=64, bias=True, |0.0 M, 0.000% Params, 0.0 Mac, 0.000% MACs|)
        )
        (post_attn_norm): LayerNorm((64,), eps=1e-05, elementwise_affine=True, |0.0 M, 0.000% Params, 0.0 Mac, 0.000% MACs|)
        (dropout): Dropout(p=0.1, inplace=False, |0.0 M, 0.000% Params, 0.0 Mac, 0.000% MACs|)
        (pre_fc_norm): LayerNorm((64,), eps=1e-05, elementwise_affine=True, |0.0 M, 0.000% Params, 0.0 Mac, 0.000% MACs|)
        (fc1): Linear(in_features=64, out_features=256, bias=True, |0.017 M, 4.874% Params, 852.224 KMac, 4.729% MACs|)
        (act): GELU(approximate='none', |0.0 M, 0.000% Params, 0.0 Mac, 0.000% MACs|)
        (act_dropout): Dropout(p=0.1, inplace=False, |0.0 M, 0.000% Params, 0.0 Mac, 0.000% MACs|)
        (post_fc_norm): LayerNorm((256,), eps=1e-05, elementwise_affine=True, |0.0 M, 0.000% Params, 0.0 Mac, 0.000% MACs|)
        (fc2): Linear(in_features=256, out_features=64, bias=True, |0.016 M, 4.818% Params, 852.032 KMac, 4.728% MACs|)
      )
    )
    (cls_blocks): ModuleList(
      (0-1): 2 x Block(
        |0.05 M, 14.565% Params, 489.428 KMac, 2.716% MACs|
        (pre_attn_norm): LayerNorm((64,), eps=1e-05, elementwise_affine=True, |0.0 M, 0.000% Params, 0.0 Mac, 0.000% MACs|)
        (attn): MultiheadAttention(
          |0.017 M, 4.874% Params, 456.34 KMac, 2.532% MACs|
          (out_proj): NonDynamicallyQuantizableLinear(in_features=64, out_features=64, bias=True, |0.0 M, 0.000% Params, 0.0 Mac, 0.000% MACs|)
        )
        (post_attn_norm): LayerNorm((64,), eps=1e-05, elementwise_affine=True, |0.0 M, 0.000% Params, 0.0 Mac, 0.000% MACs|)
        (dropout): Dropout(p=0, inplace=False, |0.0 M, 0.000% Params, 0.0 Mac, 0.000% MACs|)
        (pre_fc_norm): LayerNorm((64,), eps=1e-05, elementwise_affine=True, |0.0 M, 0.000% Params, 0.0 Mac, 0.000% MACs|)
        (fc1): Linear(in_features=64, out_features=256, bias=True, |0.017 M, 4.874% Params, 16.64 KMac, 0.092% MACs|)
        (act): GELU(approximate='none', |0.0 M, 0.000% Params, 0.0 Mac, 0.000% MACs|)
        (act_dropout): Dropout(p=0, inplace=False, |0.0 M, 0.000% Params, 0.0 Mac, 0.000% MACs|)
        (post_fc_norm): LayerNorm((256,), eps=1e-05, elementwise_affine=True, |0.0 M, 0.000% Params, 0.0 Mac, 0.000% MACs|)
        (fc2): Linear(in_features=256, out_features=64, bias=True, |0.016 M, 4.818% Params, 16.448 KMac, 0.091% MACs|)
      )
    )
    (norm): LayerNorm((64,), eps=1e-05, elementwise_affine=True, |0.0 M, 0.000% Params, 0.0 Mac, 0.000% MACs|)
    (fc): Sequential(
      |0.0 M, 0.076% Params, 260.0 Mac, 0.001% MACs|
      (0): Linear(in_features=64, out_features=4, bias=True, |0.0 M, 0.076% Params, 260.0 Mac, 0.001% MACs|)
    )
  )
)[0m
[2025-09-07 23:12:39,395] INFO: Computational complexity:       18.02 MMac
[2025-09-07 23:12:39,395] INFO: Number of parameters:           341.42 k
[2025-09-07 23:12:39,395] INFO: Using loss function MSELoss() with options {}
[2025-09-07 23:12:39,431] INFO: Create Tensorboard summary writer with comment particletransformer
…
